ch 08/digit_float.tflite (tflite, 903512 bytes, 8 tensors)

arith.constant f4 [64]
0.0061018043 -0.039116606 -0.019336041 -0.039481454 -0.024861969 -0.007840719 -0.0025162967 -0.016137606
-0.03955309 -0.036717456 -0.027527679 -0.040769536 -0.008598656 -0.025413206 -0.067813836 0.0051682307
-0.008870206 -0.007335706 -0.026422763 -0.007912696 -0.0377292 -0.01121118 -0.043562535 -0.03386041
-0.0068295756 0.00022741483 -0.036259554 -0.019003617 -0.014225154 -0.034464676 -0.02350503 -0.009727354
-0.03034955 -0.031508725 -0.04841422 -0.029572656 -0.019253386 -0.055507917 -0.016878681 -0.0302846
0.01728082 -0.029454596 -0.043667298 0.00249901 -0.029110719 -0.02553504 -0.040973328 -0.051122513
-0.04951678 0.018044526 -0.002377536 -0.014613141 0.01837703 -0.03857299 0.006828007 -0.011886006
-0.0009526228 0.000464868 -0.02849447 -0.03280746 -0.019114336 0.023827503 -0.048783295 -0.014261952
00000000: a5f1 c73b bc38 20bd 9e66 9ebc 4eb7 21bd
00000010: 54ab cbbc 5c76 00bc 74e8 24bb 0333 84bc
00000020: 6c02 22bd 0b65 16bd ba81 e1bc f5fd 26bd
00000030: 61e1 0cbc 5b2f d0bc fbe1 8abd 435a a93b
00000040: 5754 11bc 5d60 f0bb 8d74 d8bc 41a4 01bc
00000050: ef89 1abd 19af 37bc a16e 32bd 37b1 0abd
00000060: a2ca dfbb 3476 6e39 e684 14bd 79ad 9bbc
00000070: 9f10 69bc d52a 0dbd 9f8d c0bc 7b5f 1fbc
00000080: 9f9f f8bc 4b0f 01bd fd4d 46bd 5b42 f2bc
00000090: 47b9 9dbc 455c 63bd 2945 8abc 6917 f8bc
000000a0: 8290 8d3c c44a f1bc 7bdc 32bd 6ec6 233b
000000b0: 9a79 eebc dc2e d1bc a6d3 27bd d765 51bd
000000c0: 1bd2 4abd 1dd2 933c 6fd0 1bbb f56b 6fbc
000000d0: 6d8b 963c b6fe 1dbd 79bd df3b 86bd 42bc
000000e0: 6fb9 79ba 87b9 f339 3c6d e9bc 1d61 06bd
000000f0: ab95 9cbc e531 c33c fed0 47bd f6aa 69bc

arith.constant1 f4 [64, 3, 3, 32]
0.02609327 -0.013164524 0.06875245 0.021163676 -0.027423358 -0.096307985 -0.027661284 -0.22045186
-0.08227659 0.00016765576 -0.047320567 0.06339988 0.061208226 0.12224872 0.032989576 0.07153972
-0.14197879 -0.07142744 -0.017299011 -0.019104254 -0.022230929 0.07683782 -0.0115460735 0.033208743
-0.021895528 0.1072519 -0.13064621 0.100997224 0.064776644 0.036276255 -0.16682495 -0.24079338
0.053242154 0.08382999 -0.10214427 -0.0074476134 -0.05206168 -0.005408405 -0.030078301 -0.0846982
-0.01580527 0.05221052 0.016387837 -0.1608266 -0.01218111 0.015825663 -0.052784763 -0.015422655
-0.050868146 -0.039693754 0.077254266 -0.070705466 0.03425679 -0.028700002 0.1170453 -0.076937184
0.030548297 -0.031006295 -0.09136486 -0.021353653 0.10674842 -0.08757979 -0.16073993 -0.095469974
-0.10677707 -0.051733688 -0.019134685 -0.032608148 -0.07815652 -0.02885981 0.04144013 -0.08211172
0.13354994 -0.098693036 -0.011783005 -0.017654378 0.05081427 0.01999976 -0.069687456 -0.049977113
-0.06784372 0.10940165 0.019619267 -0.031229254 0.014014669 0.03312016 0.04977836 -0.097152114
-0.012498677 0.084350094 0.06583293 -0.013924731 0.0835638 0.022529896 0.0050255717 -0.14400774
-0.0034921723 0.03867696 -0.06542921 0.095383555 -0.03152871 0.013407219 0.13386498 -0.23172425
-0.039172515 0.005955725 0.013393254 0.013901183 0.030265974 0.031478744 0.04618559 -0.027452497
-0.1972616 -0.030106224 -0.038023088 0.06221435 0.02671501 -0.0036610975 0.13544759 -0.040227406
-0.079618655 0.11928751 -0.06529401 0.06468412 0.042487066 0.062110715 -0.10677598 -0.18930164
-0.051196374 0.039775904 -0.056542285 -0.011777047 -0.022937933 -0.013670629 -0.045926988 -0.0783129
0.06608809 -0.019492071 0.015349616 0.013937466 0.07632783 0.037274472 0.034987282 -0.02666785
-0.0532117 -0.052569233 0.027795002 -0.11421226 -0.04878939 0.0074972655 0.092214614 -0.06742843
0.03675407 0.0329061 -0.08365703 0.09162001 -0.0049468135 -0.13654499 -0.1761801 -0.08347438
0.046649493 0.045125976 -0.07036628 -0.10086801 -0.046212055 -0.014859171 -0.097146325 -0.12443388
0.008053999 -0.044040494 -0.06785115 0.033232998 -0.07901038 -0.08169973 -0.00794595 -0.047408506
-0.05384732 0.10770114 0.08042579 0.07535354 -0.056661557 -0.016993765 -0.1028422 0.021830035
-0.07044059 -0.03896231 0.0066591133 -0.014731997 0.032581296 0.0041577048 -0.008153524 -0.10127179
-0.009888295 -0.004223333 -0.014932011 0.08191979 0.00047713149 -0.0013787355 0.08184428 -0.19703868
0.1250785 0.069915324 -0.101379946 -0.034607597 0.07781086 0.046871517 0.06284249 -0.09404136
-0.100811854 -0.14481406 0.061142202 0.011741019 -0.019280985 0.006874087 0.11716641 -0.045860842
0.045376815 0.014287332 -0.08454935 0.067492135 0.08739994 -0.06559163 -0.11876835 -0.12912658
-0.06698153 -0.09457109 -0.116583005 0.041846365 -0.004787833 0.10109083 0.030177375 -0.090819515
0.07927872 -0.035339285 -0.047902554 0.08719962 0.06489179 -0.012229883 -0.10286316 0.026216058
-0.09555961 -0.028466871 -0.045889627 -0.049559887 -0.040807772 -0.12757385 -0.065520965 0.012716218
-0.032332838 0.0070194583 0.028332593 0.05268586 0.0017253307 -0.1096805 -0.10759972 -0.07689054
00000000: 8ec1 d53c 04b0 57bc 16ce 8c3d 725f ad3c
00000010: f3a6 e0bc 1f3d c5bd eb99 e2bc 22be 61be
00000020: a180 a8bd c0cc 2f39 36d3 41bd ccd7 813d
00000030: 7ab5 7a3d 895d fa3d 1420 073d 6b83 923d
00000040: e362 11be 8d48 92bd a8b6 8dbc 8680 9cbc
00000050: a31d b6bc 265d 9d3d be2b 3dbc e405 083d
00000060: 405e b3bc e2a6 db3d 1fc8 05be a2d7 ce3d
00000070: 9ea9 843d 6996 143d 29d4 2abe 8a92 76be
00000080: 7214 5a3d 0faf ab3d 0431 d1bd 1c0b f4bb
00000090: a13e 55bd fd38 b1bb c566 f6bc 4076 adbd
000000a0: 0e7a 81bc b3da 553d c93f 863c baaf 24be
000000b0: 4793 47bc d2a4 813c d634 58bd 4eaf 7cbc
000000c0: 1e5b 50bd eb95 22bd 7c37 9e3d 07ce 90bd
000000d0: d950 0c3d 441c ebbc 72b5 ef3d 3e91 9dbd
000000e0: 6c40 fa3c ea00 febc 801d bbbd dbed aebc
000000f0: ea9e da3d 085d b3bd 0299 24be c385 c3bd
00000100: f0ad dabd b4e6 53bd 58c0 9cbc 1f90 05bd
00000110: 8710 a0bd 696b ecbc 20bd 293d 312a a8bd
00000120: 51c1 083e 931f cabd 810d 41bc ea9f 90bc
00000130: a022 503d 89d6 a33c 4cb8 8ebd cdb4 4cbd
00000140: a6f1 8abd f90d e03d 96b8 a03c 7ed4 ffbc
00000150: c89d 653c 01a9 073d 65e4 4b3d b0f7 c6bd
00000160: 40c7 4cbc bebf ac3d 6ad3 863d 8e24 64bc
00000170: 7f23 ab3d 9e90 b83c 8dad a43b c476 13be
00000180: eedc 64bb bb6b 1e3d c0ff 85bd 7458 c33d
00000190: 4024 01bd f4a9 5b3c e713 093e 1f49 6dbe
000001a0: 5c73 20bd 3e28 c33b 616f 5b3c cac1 633c
000001b0: 59f0 f73c dbef 003d 1a2d 3d3d 0fe4 e0bc
000001c0: f2fe 49be 54a1 f6bc 19be 1bbd 79d4 7e3d
000001d0: 70d9 da3c 06ef 6fbb c6b2 0a3e 7ec5 24bd
000001e0: 1b0f a3bd 034d f43d deb8 85bd 1c79 843d
000001f0: eb06 2e3d ce67 7e3d 5dad dabd 4ad8 41be
00000200: 4ab3 51bd 0fec 223d e298 67bd 84f4 40bc
00000210: 55e8 bbbc c6fa 5fbc f01d 3cbd 8462 a0bd
00000220: 3159 873d d6ad 9fbc f57c 7b3c f859 643c
00000230: c451 9c3d 1ead 183d d34e 0f3d 8976 dabc
00000240: 83f4 59bd d652 57bd 58b2 e33c 1ee8 e9bd
00000250: 62d7 47bd 9fab f53b 04db bc3d eb17 8abd
00000260: 708b 163d 8cc8 063d 6054 abbd 46a3 bb3d
00000270: e118 a2bb 73d2 0bbe 8e68 34be 9ef4 aabd
00000280: 8a13 3f3d 04d6 383d 321c 90bd e393 cebd
00000290: da48 3dbd e173 73bc a7f4 c6bd 31d7 febd
000002a0: ecf4 033c ce63 34bd 8bf5 8abd 531f 083d
000002b0: 32d0 a1bd 3052 a7bd bb2f 02bc 6c2f 42bd
000002c0: 028f 5cbd 6a92 dc3d 47b6 a43d f552 9a3d
000002d0: f315 68bd 8236 8bbc ee9e d2bd e7d4 b23c
000002e0: 2843 90bd f196 1fbd b134 da3b 795e 71bc
000002f0: f773 053d 5b3d 883b 5c96 05bc 9667 cfbd
00000300: 8402 22bc e363 8abb 65a5 74bc 90c5 a73d
00000310: 8127 fa39 b0b6 b4ba f99d a73d 82c4 49be
00000320: 9414 003e c42f 8f3d 4aa0 cfbd b2c0 0dbd
00000330: 4d5b 9f3d 59fc 3f3d 90b3 803d c298 c0bd
00000340: 7276 cebd 234a 14be 3f70 7a3d 675d 403c
00000350: 28f3 9dbc 0540 e13b f1f4 ef3d 94d8 3bbd
00000360: 0add 393d 6a15 6a3c 3628 adbd 5139 8a3d
00000370: bdfe b23d e854 86bd d23c f3bd c239 04be
00000380: 9d2d 89bd 7dae c1bd 12c3 eebd 1867 2b3d
00000390: 41e3 9cbb b608 cf3d 8b36 f73c 95ff b9bd
000003a0: e25c a23d edbf 10bd 7835 44bd b795 b23d
000003b0: fde5 843d d95f 48bc eca9 d2bd 0fc3 d63c
000003c0: c2b4 c3bd 5b33 e9bc c3f6 3bbd 4fff 4abd
000003d0: 0d26 27bd b8a2 02be db2f 86bd af57 503c
000003e0: 706f 04bd 7c03 e63b c119 e83c 21cd 573d
000003f0: 7e24 e23a 2ca0 e0bd 3e5d dcbd ca78 9dbd

arith.constant2 f4 [10, 128]
-0.1697711 0.013491092 0.06653588 -0.09726822 -0.032297358 0.1235179 -0.15286048 0.15103658
0.13841544 0.0038221932 0.14945291 -0.24123572 0.19952871 -0.24403693 0.04219742 0.1482856
-0.1317452 -0.072594725 -0.1230081 0.21993317 0.041404597 -0.25984466 -0.058815055 -0.09647699
0.0736189 0.17718044 -0.21415898 -0.22090092 0.176289 0.13375506 -0.070275255 -0.16339846
0.15272783 -0.0080742035 0.18490796 0.057565227 0.15074956 -0.2216222 -0.21696733 0.012128611
0.16465895 -0.062877886 -0.24318911 -0.15566234 -0.044830438 0.04515673 0.0818817 -0.1434161
0.17897332 -0.121022254 -0.2755669 0.11054478 -0.13552542 0.1716996 0.105784275 0.14983071
0.11791392 -0.30569428 -0.11773999 0.04785914 -0.20050651 -0.029645998 0.13067032 -0.2917428
0.0856606 -0.13788779 0.1485846 -0.16259705 -0.18353696 0.029407162 -0.097821526 -0.01838962
0.21142906 -0.18829472 -0.20873444 -0.092148356 0.092028044 -0.062260266 0.066835664 0.082228124
-0.078889415 -0.12051008 -0.17508946 0.027347343 -0.161811 -0.077083796 -0.15712115 0.043542944
-0.29188707 -0.22072059 -0.12979566 -0.037398174 0.22857873 -0.18853278 -0.18984306 0.12822679
0.0065886043 0.14750144 0.09338632 0.10403663 0.14211589 0.06184496 -0.019255446 -0.16357042
-0.06514603 -0.0674741 -0.120785885 0.23239009 0.18423729 0.17141987 -0.23272285 0.10114999
-0.15651847 -0.03568552 0.14353041 -0.14607908 -0.09498007 -0.026329266 0.26511893 0.14427164
0.056601286 0.03788461 -0.16543522 0.06683803 0.14364524 0.056460403 0.02521889 0.00074511266
-0.23887748 -0.1982538 -0.14866853 0.044910874 0.19596504 -0.05312193 -0.068545654 -0.22495149
-0.20205064 0.2270822 -0.044180483 0.08472795 -0.012024076 0.19431286 -0.053649787 -0.04010457
0.0992999 0.09886951 -0.23049463 0.24281064 -0.016481856 0.19843753 -0.16112868 0.11123629
0.15298052 -0.12046991 0.10746173 0.2225274 0.055753987 -0.18686308 -0.10004536 0.01616565
-0.014055186 -0.24399541 0.099214405 -0.07816974 -0.2493898 -0.013992686 -0.15860859 -0.2120269
0.0569711 -0.18203576 0.01163944 -0.0904976 0.13311562 -0.089534216 -0.12656069 -0.097227745
0.10827056 -0.24380723 0.101268694 -0.13786864 0.21497354 -0.12576815 -0.0126488805 -0.01577924
-0.23789781 0.08164268 0.054355863 -0.28075466 0.049008664 0.03370005 -0.25236368 0.095456466
-0.2462389 0.13079509 -0.16346498 0.14696325 0.23118407 0.17298245 -0.12868349 -0.13293064
-0.125948 -0.12338952 0.20311001 0.046669707 0.21495155 -0.12041839 0.15649213 0.17096235
-0.028505977 0.14242019 -0.12402831 -0.2456582 0.2774314 -0.042048905 0.13727438 -0.029306265
-0.20536536 0.09719071 0.1417729 -0.16048452 -0.13097768 -0.120675705 0.10507567 0.14479275
-0.013325707 -0.12052366 -0.12264674 -0.21179569 0.048551396 -0.2534687 0.1667881 0.21888992
0.13749674 0.073393926 -0.058660615 0.17498365 -0.20152771 -0.17813082 0.14334206 -0.0016050115
-0.24743567 0.21356542 0.12218063 -0.011911041 -0.17662476 0.29188952 0.031540405 -0.20551017
0.14820373 0.07983001 0.11636274 0.18962435 -0.11960291 -0.1887951 0.13413802 0.046175987
00000000: 7ad8 2dbe be09 5d3c f743 883d 8f34 c7bd
00000010: 3c4a 04bd f4f6 fc3d 7587 1cbe 55a9 1a3e
00000020: c7bc 0d3e c37d 7a3b 2f0a 193e 7f06 77be
00000030: 4151 4c3e d1e4 79be 34d7 2c3d 2ed8 173e
00000040: 37e8 06be 8bac 94bd aceb fbbd 2936 613e
00000050: de97 293d 5c0a 85be 0ee8 70bd ba95 c5bd
00000060: 81c5 963d ca6e 353e 7e4c 5bbe da33 62be
00000070: 1b85 343e 16f7 083e 79ec 8fbd ed51 27be
00000080: af64 1c3e aa49 04bc 8358 3d3e 84c9 6b3d
00000090: 185e 1a3e eef0 62be af2c 5ebe 15b7 463c
000000a0: 5b9c 283e 1fc6 80bd 9106 79be f365 1fbe
000000b0: 1fa0 37bd 43f6 383d 98b1 a73d acdb 12be
000000c0: c844 373e 84da f7bd 1b17 8dbe 4d65 e23d
000000d0: 2dc7 0abe 05d2 2f3e 6da5 d83d 396d 193e
000000e0: da7c f13d f683 9cbe aa21 f1bd f207 443d
000000f0: 9451 4dbe 2adc f2bc 71ce 053e 505f 95be
00000100: d36e af3d 7532 0dbe 9026 183e d77f 26be
00000110: 1df1 3bbe 4ae7 f03c a756 c8bd d4a5 96bc
00000120: dc80 583e 55d0 40be 7bbe 55be 47b8 bcbd
00000130: 3379 bc3d 9f04 7fbd 23e1 883d 3867 a83d
00000140: c690 a1bd fdcd f6bd a74a 33be 8907 e03c
00000150: c8b1 25be 1cde 9dbd 5ee4 20be 165a 323d
00000160: 3972 95be 9404 62be 27e9 04be d42e 19bd
00000170: 8b10 6a3e bd0e 41be 3866 42be e24d 033e
00000180: 38e5 d73b 9e0a 173e 5441 bf3d 2811 d53d
00000190: d486 113e 2451 7d3d 99bd 9dbc 017f 27be
000001a0: 486b 85bd dc2f 8abd 975e f7bd abf7 6d3e
000001b0: b3a8 3c3e b188 2f3e e64e 6ebe ba27 cf3d
000001c0: 6146 20be fb2a 12bd a3f9 123e c195 15be
000001d0: e984 c2bd 79b0 d7bc abbd 873e f2bb 133e
000001e0: c0d6 673d e52c 1b3d da67 29be 61e2 883d
000001f0: bd17 133e 0643 673d d897 ce3c aa53 433a
00000200: 4c9c 74be 0b03 4bbe 903c 18be 77f4 373d
00000210: 0fab 483e 6296 59bd aa61 8cbd af59 66be
00000220: 5de6 4ebe 3c88 683e 98f6 34bd d985 ad3d
00000230: a100 45bc f3f9 463e e1bf 5bbd b144 24bd
00000240: bf5d cb3d 197c ca3d c906 6cbe 5aa3 783e
00000250: f504 87bc 3533 4b3e ebfe 24be dacf e33d
00000260: eda6 1c3e eeb8 f6bd e514 dc3d 39de 633e
00000270: 4b5e 643d 0959 3fbe 95e4 ccbd d36d 843c
00000280: b947 66bc efd9 79be ec30 cb3d 7517 a0bd
00000290: 0a60 7fbe 9441 65bc 4a6a 22be 941d 59be
000002a0: 875a 693d 9567 3abe 5ab3 3e3c ce56 b9bd
000002b0: 764f 083e b75d b7bd 2099 01be 571f c7bd
000002c0: f5bc dd3d 9aa8 79be f665 cf3d 702d 0dbe
000002d0: 0622 5c3e 5ec9 00be 403d 4fbc 7743 81bc
000002e0: 7c9b 73be 4734 a73d 41a4 5e3d 13bf 8fbe
000002f0: 4fbd 483d 1009 0a3d d035 81be ae7e c33d
00000300: 0d26 7cbe 26ef 053e 5d63 27be 897d 163e
00000310: 84bb 6c3e 5022 313e 9bc5 03be f81e 08be
00000320: 83f8 00be a5b3 fcbd 12fc 4f3e bc28 3f3d
00000330: 421c 5c3e eb9d f6bd 793f 203e c110 2f3e
00000340: 5e85 e9bc 99d6 113e 8e02 febd d38d 7bbe
00000350: 7d0b 8e3e 793b 2cbd a891 0c3e b113 f0bc
00000360: 4c4b 52be ec0b c73d ea2c 113e 0e56 24be
00000370: 031f 06be d324 f7bd ea31 d73d 8d44 143e
00000380: 1154 5abc 1cd5 f6bd 372e fbbd f8e0 58be
00000390: d4dd 463d a6c6 81be 80ca 2a3e ae24 603e
000003a0: f2cb 0c3e 8e4f 963d 1d46 70bd ea2e 333e
000003b0: 485d 4ebe ed67 36be 43c8 123e 405f d2ba
000003c0: c75f 7dbe e5b0 5a3e d739 fa3d 8726 43bc
000003d0: 1fdd 34be 8b72 953e 8330 013d 4271 52be
000003e0: b8c2 173e eb7d a33d 974f ee3d e32c 423e
000003f0: 5ff2 f4bd 8153 41be 7a5b 093e 0823 3d3d

arith.constant3 f4 [128, 1600]
-0.054735 -0.02809354 -0.043546103 -0.083740816 -0.043445352 0.0049390607 -0.032893613 -0.03730243
-0.02381388 0.028083412 0.03736432 -0.0030203224 -0.037558742 -0.092716135 -0.0581992 -0.060911328
-0.00794455 -0.04209053 -0.07627999 0.051102754 0.0068534426 -0.029779622 -0.03913297 -0.021847418
-0.04660007 0.034873098 -0.040030524 0.06807952 -0.03114632 0.03059418 -0.08617575 0.044608887
0.08263263 -0.014000152 -0.0061763125 0.0014261532 0.024845745 0.065395385 0.016171258 -0.015824828
-0.0052486965 -0.029123425 -0.08075721 -0.08049365 0.039692894 -0.004280801 -0.00077402714 -0.051710118
-0.027477067 -0.023194842 -0.10813557 -0.066638805 -0.00679262 0.039655533 0.0058944183 -0.062969096
0.05047693 0.030796837 0.04932137 -0.037051927 0.015787926 -0.007703143 -0.112444945 -0.03853743
-0.09905702 0.05820739 -0.037526056 0.028540675 -0.027014479 -0.031562176 0.040529683 -0.020635212
0.042967267 -0.005222281 -0.020723961 -0.07760014 -0.017588448 -0.05982257 0.03919078 0.06289853
-0.0147960605 -0.030051105 -0.019419294 0.06003839 -0.047887944 -0.011723986 0.023823665 -0.013135045
-0.07399607 -0.044654053 0.03605122 -0.049118597 0.012010934 -0.0624051 -0.069843024 0.046867326
-0.029333942 -0.00020424028 -0.059852898 0.015924025 -0.04393613 0.03211942 0.040725224 -0.05218017
0.03946035 0.01291897 0.021195296 0.03415457 -0.04067919 -0.005629378 -0.07723581 -0.008474573
0.0016770525 -0.041530076 -0.060655948 -0.0143100675 -0.031074677 0.002654977 0.039069373 -0.023234362
0.015147083 -0.0132648 0.02131933 -0.041572534 0.046183072 -0.061577193 0.054774914 0.02482837
-0.072170064 -0.0003965429 -0.02312491 0.017027928 0.01251466 -0.02043614 -0.019774335 -0.05352032
-0.024461774 0.007678497 0.050089557 0.015514272 0.03578523 0.039457645 0.010182679 -0.014519106
-0.035427295 -0.06474317 0.054745443 -0.0006138741 -0.050633237 -0.07055302 0.021836985 0.007163041
-0.09065938 -0.031511594 -0.0057768333 -0.032499388 -0.048252348 0.0117513295 0.0257017 0.060703684
-0.021393549 0.040347308 0.03276114 0.0025345592 0.008283054 0.04035856 -0.0666891 -0.005263741
-0.0033674682 0.024273688 0.049969785 -0.09140406 0.030870924 0.023963595 -0.0016605523 -0.0025146639
0.056209497 -0.051046606 0.020751787 0.003939437 -0.09796359 -0.020965587 -0.036610745 -0.016979694
-0.071186155 -0.029414786 -0.022370923 -0.028980399 0.0045168446 -0.10814702 0.03506019 -0.061087247
0.011260901 -0.034992922 -0.031943206 0.008371473 0.059696037 -0.02983979 -0.063630275 -0.07493967
0.041344535 -0.020507742 -0.06545461 -0.0042358576 -0.015725093 0.011998658 0.023207938 -0.075139076
0.04144869 0.017203938 0.0047984994 -0.023906987 0.0005257816 0.037178338 -0.05066742 -0.0063970317
0.013580053 -0.08858461 0.026713891 0.0023760404 0.052978404 0.0134855425 0.011775728 -0.00634712
-0.012143925 -0.014814295 0.0073852018 -0.04763843 -0.06330502 -0.033488717 -0.0040048235 -0.045260716
-0.13321792 -0.0032513565 -0.03575411 -0.057055682 -0.05825251 -0.053345032 -0.019325804 0.052659664
-0.040956967 0.038961053 0.002815696 -0.09577411 -0.06825521 -0.044368763 -0.026228314 -0.024641098
-0.013280045 -0.12023239 -0.007941193 -0.04123474 -0.032010533 -0.059984647 0.068339884 -0.033707075
00000000: cf31 60bd 6c24 e6bc 665d 32bd 4e80 abbd
00000010: c1f3 31bd d8d7 a13b 74bb 06bd 6fca 18bd
00000020: 5315 c3bc 2f0f e63c 540b 193d 9af0 45bb
00000030: 32d7 19bd f5e1 bdbd 4962 6ebd 287e 79bd
00000040: dc29 02bc 1f67 2cbd af38 9cbd 1f51 513d
00000050: d892 e03b 65f4 f3bc e549 20bd 5bf9 b2bc
00000060: b7df 3ebd 18d7 0e3d 0cf7 23bd 466d 8b3d
00000070: 9126 ffbc a5a0 fa3c e97c b0bd cfb7 363d
00000080: 4c3b a93d e560 65bc aa62 cabb c3ed ba3a
00000090: 4e89 cb3c 04ee 853d 9679 843c 12a3 81bc
000000a0: 42fd abbb 4094 eebc 0964 a5bd dbd9 a4bd
000000b0: 0495 223d f645 8cbb 15e8 4aba fdcd 53bd
000000c0: 9617 e1bc 1c03 bebc 2f76 ddbd ed79 88bd
000000d0: a094 debb d76d 223d f725 c13b f1f5 80bd
000000e0: e6c0 4e3d a649 fc3c 3405 4a3d c3c3 17bd
000000f0: ae55 813c a66a fcbb 8949 e6bd 6dd9 1dbd
00000100: 68de cabd df6a 6e3d ecb4 19bd 22ce e93c
00000110: 784d ddbc 5747 01bd 7402 263d 2d0b a9bc
00000120: 72fe 2f3d ab1f abbb 4cc5 a9bc d2ec 9ebd
00000130: a615 90bc 8308 75bd 8386 203d f2d0 803d
00000140: 2d6b 72bc bc2d f6bc 3615 9fbc d1ea 753d
00000150: 2626 44bd f615 40bc d929 c33c 5f34 57bc
00000160: 408b 97bd 2be7 36bd 72aa 133d 9530 49bd
00000170: 82c9 443c 7d9c 7fbd dc09 8fbd f4f7 3f3d
00000180: bc4d f0bc 5529 56b9 5028 75bd 1a73 823c
00000190: 5ff6 33bd a78f 033d 7ecf 263d e0ba 55bd
000001a0: 2da1 213d 16aa 533c c2a1 ad3c aae5 0b3d
000001b0: 399f 26bd a576 b8bb cf2d 9ebd efd8 0abc
000001c0: 8bd0 db3a 711b 2abd 5f72 78bd c674 6abc
000001d0: 5290 febc 1fff 2d3b 3507 203d fd55 bebc
000001e0: 792b 783c 9b54 59bc e0a5 ae3c f647 2abd
000001f0: 762a 3d3d 5e38 7cbd a95b 603d de64 cb3c
00000200: e6cd 93bd 16e7 cfb9 7470 bdbc 277e 8b3c
00000210: 4a0a 4d3c b169 a7bc c9fd a1bc 2038 5bbd
00000220: 0f64 c8bc e79b fb3b b52a 4d3d 932f 7e3c
00000230: 8993 123d 579e 213d 40d5 263c 8be1 6dbc
00000240: 361c 11bd 1198 84bd c23c 603d 65ec 20ba
00000250: cc64 4fbd 1a7e 90bd 7ae3 b23c f1b7 ea3b
00000260: a0ab b9bd 4d12 01bd 974b bdbb 141e 05bd
00000270: 41a4 45bd a688 403c 5f8c d23c 6da4 783d
00000280: 8641 afbc 3843 253d 8c30 063d d91a 263b
00000290: a6b5 073c 044f 253d 4b94 88bd 767b acbb
000002a0: beb0 5cbb 9dd9 c63c 1ead 4c3d 0d32 bbbd
000002b0: 05e5 fc3c 4d4f c43c e4a6 d9ba 0fcd 24bb
000002c0: ee3b 663d 3f16 51bd a7ff a93c 6516 813b
000002d0: 22a1 c8bd 06c0 abbc 26f5 15bd 0019 8bbc
000002e0: 0cca 91bd 47f7 f0bc 3a43 b7bc 4d68 edbc
000002f0: 0a02 943b 2f7c ddbd 469b 0f3d 9f36 7abd
00000300: a47f 383c bd54 0fbd e1d6 02bd 8128 093c
00000310: d583 743d 9372 f4bc 9750 82bd f879 99bd
00000320: e358 293d daff a7bc 110d 86bd f3cc 8abb
00000330: e9d1 80bc 0596 443c 931e be3c 84e2 99bd
00000340: 1ac6 293d 46ef 8c3c bb3c 9d3b 96d8 c3bc
00000350: 9bd4 093a 5048 183d a488 4fbd 319e d1bb
00000360: df7e 5e3c d96b b5bd 17d7 da3c 58b7 1b3b
00000370: e2ff 583d 77f2 5c3c fcee 403c 80fb cfbb
00000380: 50f7 46bc a8b7 72bc 90ff f13b 8420 43bd
00000390: 10a6 81bd 772b 09bd e53a 83bb 4d63 39bd
000003a0: 476a 08be b614 55bb e772 12bd 38b3 69bd
000003b0: 2f9a 6ebd 5280 5abd 2651 9ebc a9b1 573d
000003c0: 7ec2 27bd a095 1f3d 8a87 383b 3725 c4bd
000003d0: 63c9 8bbd 05bc 35bd c3dc d6bc 21dc c9bc
000003e0: 8c94 59bc 663c f6bd c71b 02bc c2e5 28bd
000003f0: 7a1d 03bd 76b2 75bd c8f5 8b3d 6e10 0abd

arith.constant4 f4 [10]
0.001716077 -0.00053468585 0.0031457483 0.008328767 0.004104574 -0.02557234 -0.059214037 -0.014265131
0.03429688 0.031175686
00000000: fded e03a 292a 0cba e628 4e3b 6175 083c
00000010: aa7f 863b 157d d1bc 6b8a 72bd 4cb8 69bc
00000020: e37a 0c3d 2764 ff3c

arith.constant5 f4 [128]
-0.0029198907 -0.007397422 -0.0013124888 0.0005248078 0.012687141 -0.010913261 0.0021073027 -0.004925409
-0.00021955576 -0.0025909212 -0.00048206985 0.013420207 -0.009182009 0.014464353 -0.001253288 -0.001090048
0.015127586 0.008715605 -0.0065991264 -0.0015268823 0.0067660445 0.008161427 -0.003045077 0.0009075401
0.0018885919 -0.0073683783 0.015711403 0.015530155 0.00025338956 0.005070529 0.007421081 0.01115222
0.005393906 -0.0060772155 0.006792223 0.0020900457 0.0006108363 0.0014402955 -0.01119184 -0.012783357
0.0011372817 -0.0008853391 0.00042125827 -0.0067249592 -0.015875215 0.0041946205 -0.0072481018 -0.00052306935
-0.0015053821 0.0031366365 0.0019496416 0.012515402 0.002386113 -0.0023936087 0.0061578555 -0.004715004
-0.007812702 0.029664231 0.005102007 0.0046010055 -0.00034489855 -0.0116762435 0.00015085499 0.01744616
-0.0017666502 0.012633364 0.004937408 -0.008886796 0.0075779967 -0.02764471 0.006073516 -0.015543586
-0.013346286 -0.003833776 -0.0019116726 0.008309507 0.004312151 -0.014677728 0.008242058 0.0018378953
-0.0034591467 0.006007026 -0.008972788 -0.010546586 0.018333497 0.004250802 0.0078089642 -0.0027434283
-0.0049842126 -0.002588743 0.008071494 -0.0063566132 -0.014825514 0.0070489263 0.012528412 0.010261976
-0.015354274 0.0004064478 -0.00027097814 -0.008538643 0.0068207583 0.0039586294 0.0060279802 0.011561
0.014129997 -0.0015931255 0.0040902253 0.0006084951 -0.0051733945 -0.004916228 0.008912785 0.0037981372
-0.00658448 0.013300012 0.010155672 -0.00433679 -0.00090368045 -0.011122692 0.009356355 -0.014232167
-0.008807783 -0.026114635 0.0045499876 0.004173879 -0.0012279231 0.006712483 0.01483303 -0.005221803
00000000: a35b 3fbb 1366 f2bb d107 acba 4193 093a
00000010: badd 4f3c 89cd 32bc ac1a 0a3b 5365 a1bb
00000020: 8d38 66b9 72cc 29bb 52be fcb9 6ee0 5b3c
00000030: 2370 16bc e5fb 6c3c 5e45 a4ba f1df 8eba
00000040: b2d9 773c e6cb 0e3c 7c3d d8bb ab21 c8ba
00000050: b2b5 dd3b 82b7 053c ea8f 47bb fce7 6d3a
00000060: a18a f73a 7072 f1bb 33b5 803c 3172 7e3c
00000070: 5fd9 8439 ae26 a63b 8a2c f33b cdb7 363c
00000080: 5dbf b03b 6123 c7bb 4c91 de3b 26f9 083b
00000090: 8820 203a 4cc8 bc3a fb5d 37bc 4971 51bc
000000a0: d710 953a 1a16 68ba 54dc dc39 0c5d dcbb
000000b0: bd0c 82bc 0773 893b 7c81 edbb 971e 09ba
000000c0: 3e50 c5ba 0790 4d3b 1e8b ff3a 670d 4d3c
000000d0: 5560 1c3b 17de 1cbb d6c7 c93b 5280 9abb
000000e0: d900 00bc 6702 f33c bd2e a73b 08c4 963b
000000f0: 80d3 b4b9 b74d 3fbc d42e 1e39 40eb 8e3c
00000100: f28e e7ba 2bfc 4e3c fbc9 a13b ed99 11bc
00000110: d850 f83b 2977 e2bc 5804 c73b 86aa 7ebc
00000120: 61aa 5abc 1740 7bbb 1791 faba 9924 083c
00000130: f24c 8d3b da7a 70bc b209 073c 88e5 f03a
00000140: dab2 62bb 96d6 c43b 9a02 13bc 96cb 2cbc
00000150: 2130 963c 504a 8b3b 57e2 ff3b 17cb 33bb
00000160: 9b52 a3bb e7a7 29bb 4d3e 043c 234b d0bb
00000170: b6e6 72bc aefa e63b f843 4d3c d921 283c
00000180: 7e90 7bbc 8018 d539 1212 8eb9 aae5 0bbc
00000190: ab80 df3b 64b7 813b 5d86 c53b 596a 3d3c
000001a0: 8181 673c 6cd0 d0ba 4c07 863b 6a83 1f3a
000001b0: 9485 a9bb 4f18 a1bb ee06 123c 2bea 783b
000001c0: 9fc2 d7bb 4be8 593c fa63 263c a21b 8ebb
000001d0: f8e4 6cba f43b 36bc 664b 193c 092e 69bc
000001e0: 854e 10bc 5cee d5bc 1018 953b 09c5 883b
000001f0: 43f2 a0ba 63f4 db3b 3d06 733c a91b abbb

sequential_4_1/conv2d_8_1/convolution f4 [32, 3, 3, 1]
0.03473194 0.2120842 0.12617074 -0.21182427 -0.030412314 0.18608925 -0.076393634 -0.22300556
0.15598267 0.14344901 -0.00085616333 0.20364028 -0.07707306 0.19230439 0.2467491 -0.12392353
-0.012978015 0.18733737 -0.08241161 -0.033452693 -0.27638185 0.014549094 -0.089534156 -0.030887296
0.16021568 0.20435196 0.23713219 0.0056389966 0.16976951 0.07223693 0.08668322 0.11523541
0.053359576 0.1376434 -0.030278783 -0.0911427 -0.04221858 0.041992836 0.20385309 -0.008375601
0.16917183 0.20597662 -0.004071006 0.053506255 -0.017888721 0.07303812 -0.05258171 0.25371468
0.124531746 0.06820055 0.06950521 0.0043448573 -0.15704149 -0.25614813 0.20626087 0.068381004
0.22308788 -0.0070482404 0.17691354 0.0637942 0.19208047 0.04817018 -0.18881728 0.22105843
0.16767976 0.14314336 -0.14643475 -0.019669058 0.002570283 -0.18960203 -0.16852479 -0.13877277
0.25617853 0.11496251 -0.165088 0.16052487 -0.11811547 -0.30019513 0.04309945 -0.15525426
-0.0012661195 -0.05094112 0.0132378 0.08796861 -0.12849358 0.16909239 0.21450883 0.12269694
-0.10771209 0.17162438 -0.19403172 -0.25824764 -0.12694402 0.20775191 0.02437341 0.009196822
0.19247021 0.069001876 0.07159446 0.09954785 -0.15778889 0.16914798 0.07638876 -0.2328254
0.020823598 -0.26845992 -0.105158255 0.20238587 0.16471167 0.16179249 0.045071527 0.15064682
-0.071715295 -0.18761936 0.13482812 0.16175121 0.0030230833 0.06371083 0.17597733 -0.1088367
-0.022332553 0.12109686 -0.13691609 -0.0031766004 0.09046513 0.22638358 -0.16066253 0.120177895
0.0719597 -0.030939061 0.17319398 0.09607238 0.13194697 0.06427848 -0.054955464 0.031950444
0.11363053 0.20289919 0.105584934 -0.0737519 0.1841018 -0.13994542 -0.113267384 0.047189195
0.15452363 0.23995633 0.06044914 -0.091772124 -0.25891218 -0.27897686 -0.11115485 -0.011875772
0.0514836 -0.10202181 -0.28885874 -0.19441132 -0.22558197 -0.014823201 -0.0121418005 -0.08946753
0.06468287 0.20426537 0.10972457 -0.07762353 -0.20837589 0.030155744 -0.24900493 0.014298979
0.23256722 -0.19270189 -0.045230683 -0.18211012 0.08520866 0.044820983 0.062484223 -0.027533557
0.12841973 0.0332781 -0.0015384977 0.14956579 0.13376053 0.16233723 0.12851572 0.097805426
0.034670476 0.058367852 -0.21653949 -0.13641217 -0.18819483 -0.09330902 0.25675726 0.13894677
-0.0695963 0.19942956 0.11852624 -0.039634284 -0.04309717 -0.017650904 0.06231824 0.17617843
0.0914314 0.18856293 0.11519359 -0.069526404 0.17334951 0.14846049 -0.09249564 -0.16255562
0.0073769693 0.046255063 -0.10690033 -0.0130881965 0.19456784 0.107856765 0.101859026 0.049676266
-0.11174388 -0.05249176 -0.070835054 -0.08317919 -0.14192511 -0.027375042 -0.08777571 -0.043581024
-0.10614431 0.17782818 0.11109642 0.0076293214 0.085396886 0.15277249 0.020925399 -0.06762889
0.061744634 0.061568204 0.15958449 0.15953432 0.18650515 0.08411682 -0.009019221 0.072272025
-0.2626931 -0.19893236 -0.22886515 0.09162251 0.16677758 -0.10483838 0.14603667 0.1937785
0.1769539 0.045927983 0.18954094 0.16682431 0.14541174 0.07994993 -0.18190524 0.09459231
00000000: 1443 0e3d 9a2c 593e e732 013e 76e8 58be
00000010: 3f23 f9bc 2e8e 3e3e 4474 9cbd 925b 64be
00000020: ecb9 1f3e 4ce4 123e 2670 60ba 1487 503e
00000030: 7bd8 9dbd 71eb 443e ccab 7c3e 9fcb fdbd
00000040: bda1 54bc 5ed5 3f3e 6bc7 a8bd b105 09bd
00000050: ec81 8dbe 535f 6e3c af5d b7bd 5b07 fdbc
00000060: 940f 243e a441 513e c8d2 723e 55c7 b83b
00000070: 0fd8 2d3e f5f0 933d f986 b13d 8b00 ec3d
00000080: 928f 5a3d 64f2 0c3e 360b f8bc 06a9 babd
00000090: 64ed 2cbd ae00 2c3d ddbe 503e d139 09bc
000000a0: 613b 2d3e 89eb 523e 1366 85bb 6029 5b3d
000000b0: 5e8b 92bc 0395 953d eb5f 57bd e4e6 813e
000000c0: 800a ff3d bbac 8b3d bf58 8e3d 4e5f 8e3b
000000d0: 7ccf 20be d925 83be 0d36 533e 570b 8c3d
000000e0: 2671 643e edf4 e6bb d328 353e 89a6 823d
000000f0: beb0 443e 184e 453d 5159 41be 245d 623e
00000100: 3eb4 2b3e 2c94 123e fef2 15be 0121 a1bc
00000110: 3172 283b 0927 42be c391 2cbe 731a 0ebe
00000120: d529 833e 7771 eb3d d40c 29be a260 243e
00000130: 86e6 f1bd 2db3 99be 0d89 303d f9fa 1ebe
00000140: ecf3 a5ba a3a7 50bd 5ce3 583c e328 b43d
00000150: d293 03be 8e26 2d3e 34a8 5b3e 8948 fb3d
00000160: 2898 dcbd 4dbe 2f3e 40b0 46be 0939 84be
00000170: 9dfd 01be ebbc 543e bfaa c73c 44ae 163c
00000180: e916 453e db50 8d3d 1ea0 923d bedf cb3d
00000190: 6993 21be 2135 2d3e b671 9c3d c869 6ebe
000001a0: 4096 aa3c 9473 89be 365d d7bd 3e3e 4f3e
000001b0: 2daa 283e eeac 253e ec9c 383d 2943 1a3e
000001c0: 78df 92bd 4a1f 40be 6210 0a3e 1ca2 253e
000001d0: ec1e 463b d37a 823d 6733 343e c7e5 debd
000001e0: c2f2 b6bc a101 f83d bb33 0cbe 832e 50bb
000001f0: c845 b93d 19d1 673e b884 24be d41f f63d
00000200: 9b5f 933d ea73 fdbc c359 313e 99c1 c43d
00000210: 1b1d 073e 70a4 833d fb18 61bd 78de 023d
00000220: 20b7 e83d cec4 4f3e ea3c d83d 3c0b 97bd
00000230: 2f85 3c3e da4d 0fbe bbf8 e7bd 7549 413d
00000240: 713b 1e3e 1db7 753e 8499 773d 06f3 bbbd
00000250: 2390 84be 0ed6 8ebe 27a5 e3bd 9992 42bc
00000260: 78e0 523d d0f0 d0bd 4be5 93be c313 47be
00000270: f6fe 66be 03dd 72bc 67ee 46bc c13a b7bd
00000280: 7478 843d f12a 513e 46b7 e03d 16f9 9ebd
00000290: 7d60 55be 2e09 f73c 26fb 7ebe 4446 6a3c
000002a0: 1a26 6e3e a553 45be cf43 39bd 137b 3abe
000002b0: e181 ae3d 3596 373d 75ef 7f3d 0e8e e1bc
000002c0: 7680 033e 9e4e 083d 6ba7 c9ba c627 193e
000002d0: 85f8 083e bb3b 263e a099 033e 364e c83d
000002e0: a102 0e3d 2113 6f3d 87bc 5dbe a2af 0bbe
000002f0: 25b6 40be cd18 bfbd b075 833e 1048 0e3e
00000300: 8188 8ebd 4337 4c3e e3bd f23d 8f57 22bd
00000310: a886 30bd a198 90bc 6941 7f3d 1e68 343e
00000320: 6340 bb3d a416 413e 9eea eb3d dc63 8ebd
00000330: 8982 313e 0706 183e 5b6e bdbd fb74 26be
00000340: 81ba f13b f375 3d3d 8fee dabd e06f 56bc
00000350: cb3c 473e 02e4 dc3d 779b d03d 5779 4b3d
00000360: fad9 e4bd 9a01 57bd f811 91bd da59 aabd
00000370: d154 11be a041 e0bc c0c3 b3bd 0482 32bd
00000380: 3062 d9bd 9718 363e 8586 e33d 63ff f93b
00000390: 90e4 ae3d 6470 1c3e be6b ab3c 0481 8abd
000003a0: f1e7 7c3d f12e 7c3d 1e6a 233e f75c 233e
000003b0: 35fb 3e3e 7045 ac3d 5bc5 13bc 5b03 943d
000003c0: b67f 86be edb4 4bbe a05b 6abe 95a4 bb3d
000003d0: bec7 2a3e 81b5 d6bd a38a 153e df6d 463e
000003e0: 6733 353e fb1e 3c3d 0517 423e fed3 2a3e
000003f0: d1e6 143e cabc a33d 5e45 3abe 9db9 c13d

sequential_4_1/conv2d_8_1/Relu;sequential_4_1/conv2d_8_1/add;sequential_4_1/conv2d_8_1/convolution; f4 [32]
-0.038313746 -0.034472078 -0.0016359617 -0.022923023 -0.02374063 0.0011238791 -0.029564124 0.083569005
0.04659598 -0.02812057 0.011994679 0.037020735 -0.028001545 -0.030095968 -0.042093668 -0.017716749
0.050475042 0.14575803 0.10777293 -0.0042370395 0.00689689 -0.0037959197 -0.025959032 -0.0056461897
0.0 -0.047479566 0.04962027 -0.035940826 -0.0030498113 -0.0052495836 0.044373248 0.03511591
00000000: e0ee 1cbd 9832 0dbd c46d d6ba 10c9 bbbc
00000010: b67b c2bc 204f 933a 7630 f2bc 3a26 ab3d
00000020: 6ddb 3e3d 1c5d e6bc 5585 443c 0ea3 173d
00000030: 7f63 e5bc d28b f6bc 696a 2cbd b722 91bc
00000040: ebbe 4e3d 9841 153e 0eb8 dc3d ddd6 8abb
00000050: 4eff e13b f7c4 78bb 09a8 d4bc ac03 b9bb
00000060: 0000 0000 ef79 42bd a03e 4b3d b036 13bd
00000070: 58df 47bb b304 acbb b9c0 353d b3d5 0f3d
