ch 08/digit_quantized.tflite (tflite, 232424 bytes, 8 tensors)

arith.constant f4 [32]
000000 e0 ee 1c bd 98 32 0d bd c4 6d d6 ba 10 c9 bb bc
       -0.038313746 -0.034472078 -0.0016359617 -0.022923023
000010 b6 7b c2 bc 20 4f 93 3a 76 30 f2 bc 3a 26 ab 3d
       -0.02374063 0.0011238791 -0.029564124 0.083569005
000020 6d db 3e 3d 1c 5d e6 bc 55 85 44 3c 0e a3 17 3d
       0.04659598 -0.02812057 0.011994679 0.037020735
000030 7f 63 e5 bc d2 8b f6 bc 69 6a 2c bd b7 22 91 bc
       -0.028001545 -0.030095968 -0.042093668 -0.017716749
000040 eb be 4e 3d 98 41 15 3e 0e b8 dc 3d dd d6 8a bb
       0.050475042 0.14575803 0.10777293 -0.0042370395
000050 4e ff e1 3b f7 c4 78 bb 09 a8 d4 bc ac 03 b9 bb
       0.00689689 -0.0037959197 -0.025959032 -0.0056461897
000060 00 00 00 00 ef 79 42 bd a0 3e 4b 3d b0 36 13 bd
       0.0 -0.047479566 0.04962027 -0.035940826
000070 58 df 47 bb b3 04 ac bb b9 c0 35 3d b3 d5 0f 3d
       -0.0030498113 -0.0052495836 0.044373248 0.03511591

arith.constant1 f4 [32, 3, 3, 1]
000000 14 43 0e 3d 9a 2c 59 3e e7 32 01 3e 76 e8 58 be
       0.03473194 0.2120842 0.12617074 -0.21182427
000010 3f 23 f9 bc 2e 8e 3e 3e 44 74 9c bd 92 5b 64 be
       -0.030412314 0.18608925 -0.076393634 -0.22300556
000020 ec b9 1f 3e 4c e4 12 3e 26 70 60 ba 14 87 50 3e
       0.15598267 0.14344901 -0.00085616333 0.20364028
000030 7b d8 9d bd 71 eb 44 3e cc ab 7c 3e 9f cb fd bd
       -0.07707306 0.19230439 0.2467491 -0.12392353
000040 bd a1 54 bc 5e d5 3f 3e 6b c7 a8 bd b1 05 09 bd
       -0.012978015 0.18733737 -0.08241161 -0.033452693
000050 ec 81 8d be 53 5f 6e 3c af 5d b7 bd 5b 07 fd bc
       -0.27638185 0.014549094 -0.089534156 -0.030887296
000060 94 0f 24 3e a4 41 51 3e c8 d2 72 3e 55 c7 b8 3b
       0.16021568 0.20435196 0.23713219 0.0056389966
000070 0f d8 2d 3e f5 f0 93 3d f9 86 b1 3d 8b 00 ec 3d
       0.16976951 0.07223693 0.08668322 0.11523541
000080 92 8f 5a 3d 64 f2 0c 3e 36 0b f8 bc 06 a9 ba bd
       0.053359576 0.1376434 -0.030278783 -0.0911427
000090 64 ed 2c bd ae 00 2c 3d dd be 50 3e d1 39 09 bc
       -0.04221858 0.041992836 0.20385309 -0.008375601
0000a0 61 3b 2d 3e 89 eb 52 3e 13 66 85 bb 60 29 5b 3d
       0.16917183 0.20597662 -0.004071006 0.053506255
0000b0 5e 8b 92 bc 03 95 95 3d eb 5f 57 bd e4 e6 81 3e
       -0.017888721 0.07303812 -0.05258171 0.25371468
0000c0 80 0a ff 3d bb ac 8b 3d bf 58 8e 3d 4e 5f 8e 3b
       0.124531746 0.06820055 0.06950521 0.0043448573
0000d0 7c cf 20 be d9 25 83 be 0d 36 53 3e 57 0b 8c 3d
       -0.15704149 -0.25614813 0.20626087 0.068381004
0000e0 26 71 64 3e ed f4 e6 bb d3 28 35 3e 89 a6 82 3d
       0.22308788 -0.0070482404 0.17691354 0.0637942
0000f0 be b0 44 3e 18 4e 45 3d 51 59 41 be 24 5d 62 3e
       0.19208047 0.04817018 -0.18881728 0.22105843
000100 3e b4 2b 3e 2c 94 12 3e fe f2 15 be 01 21 a1 bc
       0.16767976 0.14314336 -0.14643475 -0.019669058
000110 31 72 28 3b 09 27 42 be c3 91 2c be 73 1a 0e be
       0.002570283 -0.18960203 -0.16852479 -0.13877277
000120 d5 29 83 3e 77 71 eb 3d d4 0c 29 be a2 60 24 3e
       0.25617853 0.11496251 -0.165088 0.16052487
000130 86 e6 f1 bd 2d b3 99 be 0d 89 30 3d f9 fa 1e be
       -0.11811547 -0.30019513 0.04309945 -0.15525426
000140 ec f3 a5 ba a3 a7 50 bd 5c e3 58 3c e3 28 b4 3d
       -0.0012661195 -0.05094112 0.0132378 0.08796861
000150 d2 93 03 be 8e 26 2d 3e 34 a8 5b 3e 89 48 fb 3d
       -0.12849358 0.16909239 0.21450883 0.12269694
000160 28 98 dc bd 4d be 2f 3e 40 b0 46 be 09 39 84 be
       -0.10771209 0.17162438 -0.19403172 -0.25824764
000170 9d fd 01 be eb bc 54 3e bf aa c7 3c 44 ae 16 3c
       -0.12694402 0.20775191 0.02437341 0.009196822
000180 e9 16 45 3e db 50 8d 3d 1e a0 92 3d be df cb 3d
       0.19247021 0.069001876 0.07159446 0.09954785
000190 69 93 21 be 21 35 2d 3e b6 71 9c 3d c8 69 6e be
       -0.15778889 0.16914798 0.07638876 -0.2328254
0001a0 40 96 aa 3c 94 73 89 be 36 5d d7 bd 3e 3e 4f 3e
       0.020823598 -0.26845992 -0.105158255 0.20238587
0001b0 2d aa 28 3e ee ac 25 3e ec 9c 38 3d 29 43 1a 3e
       0.16471167 0.16179249 0.045071527 0.15064682
0001c0 78 df 92 bd 4a 1f 40 be 62 10 0a 3e 1c a2 25 3e
       -0.071715295 -0.18761936 0.13482812 0.16175121
0001d0 ec 1e 46 3b d3 7a 82 3d 67 33 34 3e c7 e5 de bd
       0.0030230833 0.06371083 0.17597733 -0.1088367
0001e0 c2 f2 b6 bc a1 01 f8 3d bb 33 0c be 83 2e 50 bb
       -0.022332553 0.12109686 -0.13691609 -0.0031766004
0001f0 c8 45 b9 3d 19 d1 67 3e b8 84 24 be d4 1f f6 3d
       0.09046513 0.22638358 -0.16066253 0.120177895
000200 9b 5f 93 3d ea 73 fd bc c3 59 31 3e 99 c1 c4 3d
       0.0719597 -0.030939061 0.17319398 0.09607238
000210 1b 1d 07 3e 70 a4 83 3d fb 18 61 bd 78 de 02 3d
       0.13194697 0.06427848 -0.054955464 0.031950444
000220 20 b7 e8 3d ce c4 4f 3e ea 3c d8 3d 3c 0b 97 bd
       0.11363053 0.20289919 0.105584934 -0.0737519
000230 2f 85 3c 3e da 4d 0f be bb f8 e7 bd 75 49 41 3d
       0.1841018 -0.13994542 -0.113267384 0.047189195
000240 71 3b 1e 3e 1d b7 75 3e 84 99 77 3d 06 f3 bb bd
       0.15452363 0.23995633 0.06044914 -0.091772124
000250 23 90 84 be 0e d6 8e be 27 a5 e3 bd 99 92 42 bc
       -0.25891218 -0.27897686 -0.11115485 -0.011875772
000260 78 e0 52 3d d0 f0 d0 bd 4b e5 93 be c3 13 47 be
       0.0514836 -0.10202181 -0.28885874 -0.19441132
000270 f6 fe 66 be 03 dd 72 bc 67 ee 46 bc c1 3a b7 bd
       -0.22558197 -0.014823201 -0.0121418005 -0.08946753
000280 74 78 84 3d f1 2a 51 3e 46 b7 e0 3d 16 f9 9e bd
       0.06468287 0.20426537 0.10972457 -0.07762353
000290 7d 60 55 be 2e 09 f7 3c 26 fb 7e be 44 46 6a 3c
       -0.20837589 0.030155744 -0.24900493 0.014298979
0002a0 1a 26 6e 3e a5 53 45 be cf 43 39 bd 13 7b 3a be
       0.23256722 -0.19270189 -0.045230683 -0.18211012
0002b0 e1 81 ae 3d 35 96 37 3d 75 ef 7f 3d 0e 8e e1 bc
       0.08520866 0.044820983 0.062484223 -0.027533557
0002c0 76 80 03 3e 9e 4e 08 3d 6b a7 c9 ba c6 27 19 3e
       0.12841973 0.0332781 -0.0015384977 0.14956579
0002d0 85 f8 08 3e bb 3b 26 3e a0 99 03 3e 36 4e c8 3d
       0.13376053 0.16233723 0.12851572 0.097805426
0002e0 a1 02 0e 3d 21 13 6f 3d 87 bc 5d be a2 af 0b be
       0.034670476 0.058367852 -0.21653949 -0.13641217
0002f0 25 b6 40 be cd 18 bf bd b0 75 83 3e 10 48 0e 3e
       -0.18819483 -0.09330902 0.25675726 0.13894677
000300 81 88 8e bd 43 37 4c 3e e3 bd f2 3d 8f 57 22 bd
       -0.0695963 0.19942956 0.11852624 -0.039634284
000310 a8 86 30 bd a1 98 90 bc 69 41 7f 3d 1e 68 34 3e
       -0.04309717 -0.017650904 0.06231824 0.17617843
000320 63 40 bb 3d a4 16 41 3e 9e ea eb 3d dc 63 8e bd
       0.0914314 0.18856293 0.11519359 -0.069526404
000330 89 82 31 3e 07 06 18 3e 5b 6e bd bd fb 74 26 be
       0.17334951 0.14846049 -0.09249564 -0.16255562
000340 81 ba f1 3b f3 75 3d 3d 8f ee da bd e0 6f 56 bc
       0.0073769693 0.046255063 -0.10690033 -0.0130881965
000350 cb 3c 47 3e 02 e4 dc 3d 77 9b d0 3d 57 79 4b 3d
       0.19456784 0.107856765 0.101859026 0.049676266
000360 fa d9 e4 bd 9a 01 57 bd f8 11 91 bd da 59 aa bd
       -0.11174388 -0.05249176 -0.070835054 -0.08317919
000370 d1 54 11 be a0 41 e0 bc c0 c3 b3 bd 04 82 32 bd
       -0.14192511 -0.027375042 -0.08777571 -0.043581024
000380 30 62 d9 bd 97 18 36 3e 85 86 e3 3d 63 ff f9 3b
       -0.10614431 0.17782818 0.11109642 0.0076293214
000390 90 e4 ae 3d 64 70 1c 3e be 6b ab 3c 04 81 8a bd
       0.085396886 0.15277249 0.020925399 -0.06762889
0003a0 f1 e7 7c 3d f1 2e 7c 3d 1e 6a 23 3e f7 5c 23 3e
       0.061744634 0.061568204 0.15958449 0.15953432
0003b0 35 fb 3e 3e 70 45 ac 3d 5b c5 13 bc 5b 03 94 3d
       0.18650515 0.08411682 -0.009019221 0.072272025
0003c0 b6 7f 86 be ed b4 4b be a0 5b 6a be 95 a4 bb 3d
       -0.2626931 -0.19893236 -0.22886515 0.09162251
0003d0 be c7 2a 3e 81 b5 d6 bd a3 8a 15 3e df 6d 46 3e
       0.16677758 -0.10483838 0.14603667 0.1937785
0003e0 67 33 35 3e fb 1e 3c 3d 05 17 42 3e fe d3 2a 3e
       0.1769539 0.045927983 0.18954094 0.16682431
0003f0 d1 e6 14 3e ca bc a3 3d 5e 45 3a be 9d b9 c1 3d
       0.14541174 0.07994993 -0.18190524 0.09459231

arith.constant3 f4 [128]
000000 a3 5b 3f bb 13 66 f2 bb d1 07 ac ba 41 93 09 3a
       -0.0029198907 -0.007397422 -0.0013124888 0.0005248078
000010 ba dd 4f 3c 89 cd 32 bc ac 1a 0a 3b 53 65 a1 bb
       0.012687141 -0.010913261 0.0021073027 -0.004925409
000020 8d 38 66 b9 72 cc 29 bb 52 be fc b9 6e e0 5b 3c
       -0.00021955576 -0.0025909212 -0.00048206985 0.013420207
000030 23 70 16 bc e5 fb 6c 3c 5e 45 a4 ba f1 df 8e ba
       -0.009182009 0.014464353 -0.001253288 -0.001090048
000040 b2 d9 77 3c e6 cb 0e 3c 7c 3d d8 bb ab 21 c8 ba
       0.015127586 0.008715605 -0.0065991264 -0.0015268823
000050 b2 b5 dd 3b 82 b7 05 3c ea 8f 47 bb fc e7 6d 3a
       0.0067660445 0.008161427 -0.003045077 0.0009075401
000060 a1 8a f7 3a 70 72 f1 bb 33 b5 80 3c 31 72 7e 3c
       0.0018885919 -0.0073683783 0.015711403 0.015530155
000070 5f d9 84 39 ae 26 a6 3b 8a 2c f3 3b cd b7 36 3c
       0.00025338956 0.005070529 0.007421081 0.01115222
000080 5d bf b0 3b 61 23 c7 bb 4c 91 de 3b 26 f9 08 3b
       0.005393906 -0.0060772155 0.006792223 0.0020900457
000090 88 20 20 3a 4c c8 bc 3a fb 5d 37 bc 49 71 51 bc
       0.0006108363 0.0014402955 -0.01119184 -0.012783357
0000a0 d7 10 95 3a 1a 16 68 ba 54 dc dc 39 0c 5d dc bb
       0.0011372817 -0.0008853391 0.00042125827 -0.0067249592
0000b0 bd 0c 82 bc 07 73 89 3b 7c 81 ed bb 97 1e 09 ba
       -0.015875215 0.0041946205 -0.0072481018 -0.00052306935
0000c0 3e 50 c5 ba 07 90 4d 3b 1e 8b ff 3a 67 0d 4d 3c
       -0.0015053821 0.0031366365 0.0019496416 0.012515402
0000d0 55 60 1c 3b 17 de 1c bb d6 c7 c9 3b 52 80 9a bb
       0.002386113 -0.0023936087 0.0061578555 -0.004715004
0000e0 d9 00 00 bc 67 02 f3 3c bd 2e a7 3b 08 c4 96 3b
       -0.007812702 0.029664231 0.005102007 0.0046010055
0000f0 80 d3 b4 b9 b7 4d 3f bc d4 2e 1e 39 40 eb 8e 3c
       -0.00034489855 -0.0116762435 0.00015085499 0.01744616
000100 f2 8e e7 ba 2b fc 4e 3c fb c9 a1 3b ed 99 11 bc
       -0.0017666502 0.012633364 0.004937408 -0.008886796
000110 d8 50 f8 3b 29 77 e2 bc 58 04 c7 3b 86 aa 7e bc
       0.0075779967 -0.02764471 0.006073516 -0.015543586
000120 61 aa 5a bc 17 40 7b bb 17 91 fa ba 99 24 08 3c
       -0.013346286 -0.003833776 -0.0019116726 0.008309507
000130 f2 4c 8d 3b da 7a 70 bc b2 09 07 3c 88 e5 f0 3a
       0.004312151 -0.014677728 0.008242058 0.0018378953
000140 da b2 62 bb 96 d6 c4 3b 9a 02 13 bc 96 cb 2c bc
       -0.0034591467 0.006007026 -0.008972788 -0.010546586
000150 21 30 96 3c 50 4a 8b 3b 57 e2 ff 3b 17 cb 33 bb
       0.018333497 0.004250802 0.0078089642 -0.0027434283
000160 9b 52 a3 bb e7 a7 29 bb 4d 3e 04 3c 23 4b d0 bb
       -0.0049842126 -0.002588743 0.008071494 -0.0063566132
000170 b6 e6 72 bc ae fa e6 3b f8 43 4d 3c d9 21 28 3c
       -0.014825514 0.0070489263 0.012528412 0.010261976
000180 7e 90 7b bc 80 18 d5 39 12 12 8e b9 aa e5 0b bc
       -0.015354274 0.0004064478 -0.00027097814 -0.008538643
000190 ab 80 df 3b 64 b7 81 3b 5d 86 c5 3b 59 6a 3d 3c
       0.0068207583 0.0039586294 0.0060279802 0.011561
0001a0 81 81 67 3c 6c d0 d0 ba 4c 07 86 3b 6a 83 1f 3a
       0.014129997 -0.0015931255 0.0040902253 0.0006084951
0001b0 94 85 a9 bb 4f 18 a1 bb ee 06 12 3c 2b ea 78 3b
       -0.0051733945 -0.004916228 0.008912785 0.0037981372
0001c0 9f c2 d7 bb 4b e8 59 3c fa 63 26 3c a2 1b 8e bb
       -0.00658448 0.013300012 0.010155672 -0.00433679
0001d0 f8 e4 6c ba f4 3b 36 bc 66 4b 19 3c 09 2e 69 bc
       -0.00090368045 -0.011122692 0.009356355 -0.014232167
0001e0 85 4e 10 bc 5c ee d5 bc 10 18 95 3b 09 c5 88 3b
       -0.008807783 -0.026114635 0.0045499876 0.004173879
0001f0 43 f2 a0 ba 63 f4 db 3b 3d 06 73 3c a9 1b ab bb
       -0.0012279231 0.006712483 0.01483303 -0.005221803

arith.constant4 f4 [10]
000000 fd ed e0 3a 29 2a 0c ba e6 28 4e 3b 61 75 08 3c
       0.001716077 -0.00053468585 0.0031457483 0.008328767
000010 aa 7f 86 3b 15 7d d1 bc 6b 8a 72 bd 4c b8 69 bc
       0.004104574 -0.02557234 -0.059214037 -0.014265131
000020 e3 7a 0c 3d 27 64 ff 3c
       0.03429688 0.031175686

arith.constant5 f4 [64]
000000 a5 f1 c7 3b bc 38 20 bd 9e 66 9e bc 4e b7 21 bd
       0.0061018043 -0.039116606 -0.019336041 -0.039481454
000010 54 ab cb bc 5c 76 00 bc 74 e8 24 bb 03 33 84 bc
       -0.024861969 -0.007840719 -0.0025162967 -0.016137606
000020 6c 02 22 bd 0b 65 16 bd ba 81 e1 bc f5 fd 26 bd
       -0.03955309 -0.036717456 -0.027527679 -0.040769536
000030 61 e1 0c bc 5b 2f d0 bc fb e1 8a bd 43 5a a9 3b
       -0.008598656 -0.025413206 -0.067813836 0.0051682307
000040 57 54 11 bc 5d 60 f0 bb 8d 74 d8 bc 41 a4 01 bc
       -0.008870206 -0.007335706 -0.026422763 -0.007912696
000050 ef 89 1a bd 19 af 37 bc a1 6e 32 bd 37 b1 0a bd
       -0.0377292 -0.01121118 -0.043562535 -0.03386041
000060 a2 ca df bb 34 76 6e 39 e6 84 14 bd 79 ad 9b bc
       -0.0068295756 0.00022741483 -0.036259554 -0.019003617
000070 9f 10 69 bc d5 2a 0d bd 9f 8d c0 bc 7b 5f 1f bc
       -0.014225154 -0.034464676 -0.02350503 -0.009727354
000080 9f 9f f8 bc 4b 0f 01 bd fd 4d 46 bd 5b 42 f2 bc
       -0.03034955 -0.031508725 -0.04841422 -0.029572656
000090 47 b9 9d bc 45 5c 63 bd 29 45 8a bc 69 17 f8 bc
       -0.019253386 -0.055507917 -0.016878681 -0.0302846
0000a0 82 90 8d 3c c4 4a f1 bc 7b dc 32 bd 6e c6 23 3b
       0.01728082 -0.029454596 -0.043667298 0.00249901
0000b0 9a 79 ee bc dc 2e d1 bc a6 d3 27 bd d7 65 51 bd
       -0.029110719 -0.02553504 -0.040973328 -0.051122513
0000c0 1b d2 4a bd 1d d2 93 3c 6f d0 1b bb f5 6b 6f bc
       -0.04951678 0.018044526 -0.002377536 -0.014613141
0000d0 6d 8b 96 3c b6 fe 1d bd 79 bd df 3b 86 bd 42 bc
       0.01837703 -0.03857299 0.006828007 -0.011886006
0000e0 6f b9 79 ba 87 b9 f3 39 3c 6d e9 bc 1d 61 06 bd
       -0.0009526228 0.000464868 -0.02849447 -0.03280746
0000f0 ab 95 9c bc e5 31 c3 3c fe d0 47 bd f6 aa 69 bc
       -0.019114336 0.023827503 -0.048783295 -0.014261952

tfl.pseudo_qconst i1 [64, 3, 3, 32]
000000 0e f9 24 0b f2 cd f1 8c d5 00 e7 21 20 40 11 26
       14 -7 36 11 -14 -51 -15 -116 -43 0 -25 33 32 64 17 38
000010 b5 da f7 f6 f4 29 fa 12 f4 39 bb 35 22 13 a8 81
       -75 -38 -9 -10 -12 41 -6 18 -12 57 -69 53 34 19 -88 -127
000020 1c 2c ca fc e5 fd f0 d3 f8 1c 09 ab fa 08 e4 f8
       28 44 -54 -4 -27 -3 -16 -45 -8 28 9 -85 -6 8 -28 -8
000030 e5 eb 29 db 12 f1 3e d7 10 f0 d0 f5 38 d2 ab ce
       -27 -21 41 -37 18 -15 62 -41 16 -16 -48 -11 56 -46 -85 -50
000040 c8 e5 f6 ef d7 f1 16 d5 46 cc fa f7 1b 0b db e6
       -56 -27 -10 -17 -41 -15 22 -43 70 -52 -6 -9 27 11 -37 -26
000050 dc 3a 0a f0 07 11 1a cd f9 2c 23 f9 2c 0c 03 b4
       -36 58 10 -16 7 17 26 -51 -7 44 35 -7 44 12 3 -76
000060 fe 14 dd 32 ef 07 47 86 eb 03 07 07 10 11 18 f2
       -2 20 -35 50 -17 7 71 -122 -21 3 7 7 16 17 24 -14
000070 98 f0 ec 21 0e fe 47 eb d6 3f de 22 16 21 c8 9c
       -104 -16 -20 33 14 -2 71 -21 -42 63 -34 34 22 33 -56 -100
000080 e5 15 e2 fa f4 f9 e8 d7 23 f6 08 07 28 14 12 f2
       -27 21 -30 -6 -12 -7 -24 -41 35 -10 8 7 40 20 18 -14
000090 e4 e4 0f c4 e6 04 31 dc 13 11 d4 30 fd b8 a3 d4
       -28 -28 15 -60 -26 4 49 -36 19 17 -44 48 -3 -72 -93 -44
0000a0 19 18 db cb e8 f8 cd be 04 e9 dc 12 d6 d5 fc e7
       25 24 -37 -53 -24 -8 -51 -66 4 -23 -36 18 -42 -43 -4 -25
0000b0 e4 39 2a 28 e2 f7 ca 0c db eb 04 f8 11 02 fc cb
       -28 57 42 40 -30 -9 -54 12 -37 -21 4 -8 17 2 -4 -53
0000c0 fb fe f8 2b 00 ff 2b 98 42 25 cb ee 29 19 21 ce
       -5 -2 -8 43 0 -1 43 -104 66 37 -53 -18 41 25 33 -50
0000d0 cb b4 20 06 f6 04 3e e8 18 08 d3 24 2e dd c1 bc
       -53 -76 32 6 -10 4 62 -24 24 8 -45 36 46 -35 -63 -68
0000e0 dd ce c3 16 fd 35 10 d0 2a ed e7 2e 22 fa ca 0e
       -35 -50 -61 22 -3 53 16 -48 42 -19 -25 46 34 -6 -54 14
0000f0 ce f1 e8 e6 ea bd dd 07 ef 04 0f 1c 01 c6 c7 d7
       -50 -15 -24 -26 -22 -67 -35 7 -17 4 15 28 1 -58 -57 -41

tfl.pseudo_qconst1 i1 [10, 128]
000000 b9 06 1c d8 f3 33 c0 3f 3a 02 3e 9c 53 9b 12 3e
       -71 6 28 -40 -13 51 -64 63 58 2 62 -100 83 -101 18 62
000010 c9 e2 cd 5b 11 94 e8 d8 1f 4a a7 a4 49 38 e3 bc
       -55 -30 -51 91 17 -108 -24 -40 31 74 -89 -92 73 56 -29 -68
000020 3f fd 4d 18 3f a4 a6 05 44 e6 9b bf ed 13 22 c4
       63 -3 77 24 63 -92 -90 5 68 -26 -101 -65 -19 19 34 -60
000030 4a ce 8e 2e c8 47 2c 3e 31 81 cf 14 ad f4 36 87
       74 -50 -114 46 -56 71 44 62 49 -127 -49 20 -83 -12 54 -121
000040 24 c7 3e bc b4 0c d7 f8 58 b2 a9 da 26 e6 1c 22
       36 -57 62 -68 -76 12 -41 -8 88 -78 -87 -38 38 -26 28 34
000050 df ce b7 0b bd e0 bf 12 87 a4 ca f0 5f b2 b1 35
       -33 -50 -73 11 -67 -32 -65 18 -121 -92 -54 -16 95 -78 -79 53
000060 03 3d 27 2b 3b 1a f8 bc e5 e4 ce 61 4d 47 9f 2a
       3 61 39 43 59 26 -8 -68 -27 -28 -50 97 77 71 -97 42
000070 bf f1 3c c3 d9 f5 6e 3c 18 10 bb 1c 3c 17 0a 00
       -65 -15 60 -61 -39 -11 110 60 24 16 -69 28 60 23 10 0
000080 98 aa bf 14 55 e9 e2 9e a8 63 ed 25 fb 55 e9 ef
       -104 -86 -65 20 85 -23 -30 -98 -88 99 -19 37 -5 85 -23 -17
000090 2b 2b 9c 6a f9 56 ba 30 43 cc 2f 61 18 af d4 07
       43 43 -100 106 -7 86 -70 48 67 -52 47 97 24 -81 -44 7
0000a0 fa 96 2b de 93 fa bb a4 19 b1 05 d9 3a d9 c9 d6
       -6 -106 43 -34 -109 -6 -69 -92 25 -79 5 -39 58 -39 -55 -42
0000b0 2f 96 2c c4 5e c9 fa f9 98 24 18 86 15 0f 92 2a
       47 -106 44 -60 94 -55 -6 -7 -104 36 24 -122 21 15 -110 42
0000c0 95 39 b9 40 65 4b c8 c6 c9 ca 58 14 5e cc 44 4a
       -107 57 -71 64 101 75 -56 -58 -55 -54 88 20 94 -52 68 74
0000d0 f4 3e ca 95 79 ee 3c f3 a7 2a 3e ba c7 cb 2e 3f
       -12 62 -54 -107 121 -18 60 -13 -89 42 62 -70 -57 -53 46 63
0000e0 fa cc cb a4 15 92 49 5f 3c 20 e6 4c a8 b2 3e ff
       -6 -52 -53 -92 21 -110 73 95 60 32 -26 76 -88 -78 62 -1
0000f0 94 5d 35 fb b3 7f 0e a7 40 23 33 53 cc ae 3a 14
       -108 93 53 -5 -77 127 14 -89 64 35 51 83 -52 -82 58 20

tfl.pseudo_qconst2 i1 [128, 1600]
000000 cf e7 d9 b5 d9 04 e3 df eb 19 21 fd df ae cc ca
       -49 -25 -39 -75 -39 4 -29 -33 -21 25 33 -3 -33 -82 -52 -54
000010 f9 db bc 2d 06 e6 dd ed d7 1f dc 3d e4 1b b3 28
       -7 -37 -68 45 6 -26 -35 -19 -41 31 -36 61 -28 27 -77 40
000020 4a f4 fb 01 16 3a 0e f2 fb e6 b8 b8 23 fc ff d2
       74 -12 -5 1 22 58 14 -14 -5 -26 -72 -72 35 -4 -1 -46
000030 e8 eb a0 c5 fa 23 05 c8 2d 1b 2c df 0e f9 9c de
       -24 -21 -96 -59 -6 35 5 -56 45 27 44 -33 14 -7 -100 -34
000040 a8 34 df 19 e8 e4 24 ee 26 fb ee bb f0 cb 23 38
       -88 52 -33 25 -24 -28 36 -18 38 -5 -18 -69 -16 -53 35 56
000050 f3 e5 ef 35 d5 f6 15 f4 be d8 20 d4 0b c8 c2 2a
       -13 -27 -17 53 -43 -10 21 -12 -66 -40 32 -44 11 -56 -62 42
000060 e6 00 cb 0e d9 1d 24 d2 23 0b 13 1e dc fb bb f8
       -26 0 -53 14 -39 29 36 -46 35 11 19 30 -36 -5 -69 -8
000070 01 db ca f3 e4 02 23 eb 0d f4 13 db 29 c9 31 16
       1 -37 -54 -13 -28 2 35 -21 13 -12 19 -37 41 -55 49 22
000080 c0 00 eb 0f 0b ee ee d0 ea 07 2d 0e 20 23 09 f3
       -64 0 -21 15 11 -18 -18 -48 -22 7 45 14 32 35 9 -13
000090 e0 c6 31 ff d3 c1 13 06 af e4 fb e3 d5 0a 17 36
       -32 -58 49 -1 -45 -63 19 6 -81 -28 -5 -29 -43 10 23 54
0000a0 ed 24 1d 02 07 24 c5 fb fd 16 2c af 1b 15 ff fe
       -19 36 29 2 7 36 -59 -5 -3 22 44 -81 27 21 -1 -2
0000b0 32 d3 12 04 a9 ed df f1 c1 e6 ec e6 04 a0 1f ca
       50 -45 18 4 -87 -19 -33 -15 -63 -26 -20 -26 4 -96 31 -54
0000c0 0a e1 e4 07 35 e5 c7 bd 25 ee c6 fc f2 0b 15 bd
       10 -31 -28 7 53 -27 -57 -67 37 -18 -58 -4 -14 11 21 -67
0000d0 25 0f 04 eb 00 21 d3 fa 0c b1 18 02 2f 0c 0a fa
       37 15 4 -21 0 33 -45 -6 12 -79 24 2 47 12 10 -6
0000e0 f5 f3 07 d6 c8 e2 fc d8 89 fd e0 cd cc d1 ef 2f
       -11 -13 7 -42 -56 -30 -4 -40 -119 -3 -32 -51 -52 -47 -17 47
0000f0 dc 23 03 ab c3 d9 e9 ea f4 95 f9 db e4 cb 3d e2
       -36 35 3 -85 -61 -39 -23 -22 -12 -107 -7 -37 -28 -53 61 -30
